…
rs.MaxPooling2D((2,2)))\n","network.add(layers.Conv2D(64, (3,3), activation='relu'))\n","\n","network.add(layers.Flatten())\n","\n","network.add(layers.Dense(512, activation='relu'))\n","network.add(layers.Dense(10, activation='softmax'))\n","\n","network.summary()"],"execution_count":31,"outputs":[{"output_type":"stream","text":["Model: \"sequential_1\"\n","_________________________________________________________________\n","Layer (type)                 Output Shape              Param #   \n","=================================================================\n","conv2d_3 (Conv2D)            (None, 30, 30, 32)        896       \n","_________________________________________________________________\n","max_pooling2d_2 (MaxPooling2 (None, 15, 15, 32)        0         \n","_________________________________________________________________\n","conv2d_4 (Conv2D)            (None, 13, 13, 64)        18496     \n","_________________________________________________________________\n","max_pooling2d_3 (MaxPooling2 (None, 6, 6, 64)          0         \n","_________________________________________________________________\n","conv2d_5 (Conv2D)            (None, 4, 4, 64)          36928     \n","_________________________________________________________________\n","flatten_1 (Flatten)          (None, 1024)              0         \n","_________________________________________________________________\n","dense_2 (Dense)              (None, 512)               524800    \n","_________________________________________________________________\n","dense_3 (Dense)              (None, 10)                5130      \n","=================================================================\n","Total params: 586,250\n","Trainable params: 586,250\n","Non-trainable params: 0\n","_________________________________________________________________\n"],"name":"stdout"}]},{"cell_type":"code","metadata":{"id":"1HvcqpbpFgk-","executionInfo":{"status":"ok","timestamp":1626570137140,"user_tz":-120,"elapsed":246,"user":{
…
