…
"network.add(layers.MaxPooling2D((2,2)))\n","network.add(layers.Conv2D(64, (3,3), activation='relu'))\n","network.add(layers.Flatten())\n","network.add(layers.Dense(256, activation='relu'))\n","network.add(layers.Dense(10, activation='softmax'))\n","network.summary()"],"execution_count":10,"outputs":[{"output_type":"stream","text":["Model: \"sequential\"\n","_________________________________________________________________\n","Layer (type)                 Output Shape              Param #   \n","=================================================================\n","conv2d (Conv2D)              (None, 26, 26, 32)        320       \n","_________________________________________________________________\n","max_pooling2d (MaxPooling2D) (None, 13, 13, 32)        0         \n","_________________________________________________________________\n","conv2d_1 (Conv2D)            (None, 11, 11, 32)        9248      \n","_________________________________________________________________\n","max_pooling2d_1 (MaxPooling2 (None, 5, 5, 32)          0         \n","_________________________________________________________________\n","conv2d_2 (Conv2D)            (None, 3, 3, 64)          18496     \n","_________________________________________________________________\n","flatten (Flatten)            (None, 576)               0         \n","_________________________________________________________________\n","dense (Dense)                (None, 256)               147712    \n","_________________________________________________________________\n","dense_1 (Dense)              (None, 10)                2570      \n","=================================================================\n","Total params: 178,346\n","Trainable params: 178,346\n","Non-trainable params: 0\n","_________________________________________________________________\n"],"name":"stdout"}]},{"cell_type":"code","metadata":{"id":"nOWs36S60nKe","executionInfo":{"status":"ok","timestamp":1626565121194,"user_tz":-120,"elapsed":268,"user":{
…
